…
temp dataset size: 100
/users/apokkunu/trial/img/annotations/image_info_test2014.json /users/apokkunu/trial/img/test2014/

dataset size: 40775

temp dataset size: 100

dataset size: 100

dataset size: 100

dataset size: 100
Model: "preprocess"
_________________________________________________________________
Layer (type)                 Output Shape              Param #   
=================================================================
image (InputLayer)           [(None, 128, 128, 3)]     0         
_________________________________________________________________
spectral_normalization (Spec (None, 128, 128, 8)       232       
_________________________________________________________________
bn_swish_conv (BNSwishConv)  (None, 128, 128, 8)       1324      
_________________________________________________________________
bn_swish_conv_1 (BNSwishConv (None, 128, 128, 8)       1324      
_________________________________________________________________
bn_swish_conv_2 (BNSwishConv (None, 64, 64, 16)        3924      
_________________________________________________________________
bn_swish_conv_3 (BNSwishConv (None, 64, 64, 16)        4948      
_________________________________________________________________
bn_swish_conv_4 (BNSwishConv (None, 64, 64, 16)        4948      
_________________________________________________________________
bn_swish_conv_5 (BNSwishConv (None, 32, 32, 32)        15012     
=================================================================
Total params: 31,712
Trainable params: 31,128
Non-trainable params: 584
_________________________________________________________________
4 (32, 32, 32)

ENCODER

Group:  0
Output_channels:  32
res block
res block
combiner
Output_channels:  32
res block
res block
combiner
Output_channels:  32
res block
res block
combiner
Output_channels:  32
…
Output channels 32
Gen Res block
Gen Res block
Decoder Combiner
Model: "decoder"
__________________________________________________________________________________________________
Layer (type)                    Output Shape         Param #     Connected to                     
==================================================================================================
encoder_input (InputLayer)      [(None, 32, 32, 32)] 0                                            
__________________________________________________________________________________________________
res_block_0_0_0 (EncodingResidu (None, 32, 32, 32)   19108       encoder_input[0][0]              
__________________________________________________________________________________________________
res_block_0_0_1 (EncodingResidu (None, 32, 32, 32)   19108       res_block_0_0_0[0][0]            
__________________________________________________________________________________________________
res_block_0_1_0 (EncodingResidu (None, 32, 32, 32)   19108       res_block_0_0_1[0][0]            
__________________________________________________________________________________________________
res_block_0_1_1 (EncodingResidu (None, 32, 32, 32)   19108       res_block_0_1_0[0][0]            
__________________________________________________________________________________________________
res_block_0_2_0 (EncodingResidu (None, 32, 32, 32)   19108       res_block_0_1_1[0][0]            
__________________________________________________________________________________________________
res_block_0_2_1 (EncodingResidu (None, 32, 32, 32)   19108       res_block_0_2_0[0][0]            
__________________________________________________________________________________________________
res_block_0_3_0 (EncodingResidu (None, 32, 32, 32)   19108       res_block_0_2_1[0][0]            
__________________________________________________________________________________________________
res_block_0_3_1 (EncodingResidu (None, 32, 32, 32)   19108       res_block_0_3_0[0][0]            
__________________________________________________________________________________________________
rescaler (Rescaler)             (None, 16, 16, 64)   18688       res_block_0_3_1[0][0]            
__________________________________________________________________________________________________
res_block_1_0_0 (EncodingResidu (None, 16, 16, 64)   75076       rescaler[0][0]                   
__________________________________________________________________________________________________
res_block_1_0_1 (EncodingResidu (None, 16, 16, 64)   75076       res_block_1_0_0[0][0]            
__________________________________________________________________________________________________
res_block_1_1_0 (EncodingResidu (None, 16, 16, 64)   75076       res_block_1_0_1[0][0]            
__________________________________________________________________________________________________
res_block_1_1_1 (EncodingResidu (None, 16, 16, 64)   75076       res_block_1_1_0[0][0]            
__________________________________________________________________________________________________
res_block_1_2_0 (EncodingResidu (None, 16, 16, 64)   75076       res_block_1_1_1[0][0]            
__________________________________________________________________________________________________
res_block_1_2_1 (EncodingResidu (None, 16, 16, 64)   75076       res_block_1_2_0[0][0]            
__________________________________________________________________________________________________
res_block_1_3_0 (EncodingResidu (None, 16, 16, 64)   75076       res_block_1_2_1[0][0]            
__________________________________________________________________________________________________
res_block_1_3_1 (EncodingResidu (None, 16, 16, 64)   75076       res_block_1_3_0[0][0]            
__________________________________________________________________________________________________
rescaler_1 (Rescaler)           (None, 8, 8, 128)    74240       res_block_1_3_1[0][0]            
__________________________________________________________________________________________________
res_block_2_0_0 (EncodingResidu (None, 8, 8, 128)    298632      rescaler_1[0][0]                 
__________________________________________________________________________________________________
res_block_2_0_1 (EncodingResidu (None, 8, 8, 128)    298632      res_block_2_0_0[0][0]            
__________________________________________________________________________________________________
res_block_2_1_0 (EncodingResidu (None, 8, 8, 128)    298632      res_block_2_0_1[0][0]            
__________________________________________________________________________________________________
res_block_2_1_1 (EncodingResidu (None, 8, 8, 128)    298632      res_block_2_1_0[0][0]            
__________________________________________________________________________________________________
res_block_2_2_0 (EncodingResidu (None, 8, 8, 128)    298632      res_block_2_1_1[0][0]            
__________________________________________________________________________________________________
res_block_2_2_1 (EncodingResidu (None, 8, 8, 128)    298632      res_block_2_2_0[0][0]            
__________________________________________________________________________________________________
res_block_2_3_0 (EncodingResidu (None, 8, 8, 128)    298632      res_block_2_2_1[0][0]            
__________________________________________________________________________________________________
res_block_2_3_1 (EncodingResidu (None, 8, 8, 128)    298632      res_block_2_3_0[0][0]            
__________________________________________________________________________________________________
elu (ELU)                       (None, 8, 8, 128)    0           res_block_2_3_1[0][0]            
__________________________________________________________________________________________________
spectral_normalization_82 (Spec (None, 8, 8, 128)    16640       elu[0][0]                        
__________________________________________________________________________________________________
elu_1 (ELU)                     (None, 8, 8, 128)    0           spectral_normalization_82[0][0]  
__________________________________________________________________________________________________
sampler (Sampler)               multiple             355120      elu_1[0][0]                      
                                                                 generative_residual_cell_1[0][0] 
                                                                 generative_residual_cell_3[0][0] 
…
tf_op_layer_strided_slice (Tens [()]                 0           tf_op_layer_Shape[0][0]          
__________________________________________________________________________________________________
tf_op_layer_Tile/multiples (Ten [(4,)]               0           tf_op_layer_strided_slice[0][0]  
__________________________________________________________________________________________________
tf_op_layer_Tile (TensorFlowOpL [(None, 8, 8, 8)]    0           tf_op_layer_Tile/multiples[0][0] 
__________________________________________________________________________________________________
decoder_sample_combiner (Decode (None, 8, 8, 128)    3840        tf_op_layer_Tile[0][0]           
__________________________________________________________________________________________________
generative_residual_cell (Gener (None, 8, 8, 128)    227720      decoder_sample_combiner[0][0]    
__________________________________________________________________________________________________
generative_residual_cell_1 (Gen (None, 8, 8, 128)    227720      generative_residual_cell[0][0]   
__________________________________________________________________________________________________
encoder_decoder_combiner_10 (En (None, 8, 8, 128)    16640       res_block_2_2_1[0][0]            
__________________________________________________________________________________________________
decoder_sample_combiner_1 (Deco (None, 8, 8, 128)    19200       generative_residual_cell_1[0][0] 
__________________________________________________________________________________________________
generative_residual_cell_2 (Gen (None, 8, 8, 128)    227720      decoder_sample_combiner_1[0][0]  
__________________________________________________________________________________________________
generative_residual_cell_3 (Gen (None, 8, 8, 128)    227720      generative_residual_cell_2[0][0] 
__________________________________________________________________________________________________
encoder_decoder_combiner_9 (Enc (None, 8, 8, 128)    16640       res_block_2_1_1[0][0]            
__________________________________________________________________________________________________
decoder_sample_combiner_2 (Deco (None, 8, 8, 128)    19200       generative_residual_cell_3[0][0] 
__________________________________________________________________________________________________
generative_residual_cell_4 (Gen (None, 8, 8, 128)    227720      decoder_sample_combiner_2[0][0]  
__________________________________________________________________________________________________
generative_residual_cell_5 (Gen (None, 8, 8, 128)    227720      generative_residual_cell_4[0][0] 
__________________________________________________________________________________________________
encoder_decoder_combiner_8 (Enc (None, 8, 8, 128)    16640       res_block_2_0_1[0][0]            
__________________________________________________________________________________________________
decoder_sample_combiner_3 (Deco (None, 8, 8, 128)    19200       generative_residual_cell_5[0][0] 
__________________________________________________________________________________________________
rescaler_2 (Rescaler)           (None, 16, 16, 64)   74368       decoder_sample_combiner_3[0][0]  
__________________________________________________________________________________________________
generative_residual_cell_6 (Gen (None, 16, 16, 64)   64196       rescaler_2[0][0]                 
__________________________________________________________________________________________________
generative_residual_cell_7 (Gen (None, 16, 16, 64)   64196       generative_residual_cell_6[0][0] 
__________________________________________________________________________________________________
encoder_decoder_combiner_7 (Enc (None, 16, 16, 64)   4224        res_block_1_3_1[0][0]            
__________________________________________________________________________________________________
decoder_sample_combiner_4 (Deco (None, 16, 16, 64)   5504        generative_residual_cell_7[0][0] 
__________________________________________________________________________________________________
generative_residual_cell_8 (Gen (None, 16, 16, 64)   64196       decoder_sample_combiner_4[0][0]  
__________________________________________________________________________________________________
generative_residual_cell_9 (Gen (None, 16, 16, 64)   64196       generative_residual_cell_8[0][0] 
__________________________________________________________________________________________________
encoder_decoder_combiner_6 (Enc (None, 16, 16, 64)   4224        res_block_1_2_1[0][0]            
__________________________________________________________________________________________________
decoder_sample_combiner_5 (Deco (None, 16, 16, 64)   5504        generative_residual_cell_9[0][0] 
__________________________________________________________________________________________________
generative_residual_cell_10 (Ge (None, 16, 16, 64)   64196       decoder_sample_combiner_5[0][0]  
__________________________________________________________________________________________________
generative_residual_cell_11 (Ge (None, 16, 16, 64)   64196       generative_residual_cell_10[0][0]
__________________________________________________________________________________________________
encoder_decoder_combiner_5 (Enc (None, 16, 16, 64)   4224        res_block_1_1_1[0][0]            
__________________________________________________________________________________________________
decoder_sample_combiner_6 (Deco (None, 16, 16, 64)   5504        generative_residual_cell_11[0][0]
__________________________________________________________________________________________________
generative_residual_cell_12 (Ge (None, 16, 16, 64)   64196       decoder_sample_combiner_6[0][0]  
__________________________________________________________________________________________________
generative_residual_cell_13 (Ge (None, 16, 16, 64)   64196       generative_residual_cell_12[0][0]
__________________________________________________________________________________________________
encoder_decoder_combiner_4 (Enc (None, 16, 16, 64)   4224        res_block_1_0_1[0][0]            
__________________________________________________________________________________________________
decoder_sample_combiner_7 (Deco (None, 16, 16, 64)   5504        generative_residual_cell_13[0][0]
__________________________________________________________________________________________________
rescaler_3 (Rescaler)           (None, 32, 32, 32)   18752       decoder_sample_combiner_7[0][0]  
__________________________________________________________________________________________________
generative_residual_cell_14 (Ge (None, 32, 32, 32)   19812       rescaler_3[0][0]                 
__________________________________________________________________________________________________
generative_residual_cell_15 (Ge (None, 32, 32, 32)   19812       generative_residual_cell_14[0][0]
__________________________________________________________________________________________________
encoder_decoder_combiner_3 (Enc (None, 32, 32, 32)   1088        res_block_0_3_1[0][0]            
__________________________________________________________________________________________________
decoder_sample_combiner_8 (Deco (None, 32, 32, 32)   1728        generative_residual_cell_15[0][0]
__________________________________________________________________________________________________
generative_residual_cell_16 (Ge (None, 32, 32, 32)   19812       decoder_sample_combiner_8[0][0]  
__________________________________________________________________________________________________
generative_residual_cell_17 (Ge (None, 32, 32, 32)   19812       generative_residual_cell_16[0][0]
__________________________________________________________________________________________________
encoder_decoder_combiner_2 (Enc (None, 32, 32, 32)   1088        res_block_0_2_1[0][0]            
__________________________________________________________________________________________________
decoder_sample_combiner_9 (Deco (None, 32, 32, 32)   1728        generative_residual_cell_17[0][0]
__________________________________________________________________________________________________
generative_residual_cell_18 (Ge (None, 32, 32, 32)   19812       decoder_sample_combiner_9[0][0]  
__________________________________________________________________________________________________
generative_residual_cell_19 (Ge (None, 32, 32, 32)   19812       generative_residual_cell_18[0][0]
__________________________________________________________________________________________________
encoder_decoder_combiner_1 (Enc (None, 32, 32, 32)   1088        res_block_0_1_1[0][0]            
__________________________________________________________________________________________________
decoder_sample_combiner_10 (Dec (None, 32, 32, 32)   1728        generative_residual_cell_19[0][0]
__________________________________________________________________________________________________
generative_residual_cell_20 (Ge (None, 32, 32, 32)   19812       decoder_sample_combiner_10[0][0] 
__________________________________________________________________________________________________
generative_residual_cell_21 (Ge (None, 32, 32, 32)   19812       generative_residual_cell_20[0][0]
__________________________________________________________________________________________________
encoder_decoder_combiner (Encod (None, 32, 32, 32)   1088        res_block_0_0_1[0][0]            
__________________________________________________________________________________________________
decoder_sample_combiner_11 (Dec (None, 32, 32, 32)   1728        generative_residual_cell_21[0][0]
==================================================================================================
Total params: 5,900,256
Trainable params: 5,832,168
Non-trainable params: 68,088
__________________________________________________________________________________________________

Post-process
add post process cell
add post process cell
add post process cell
add post process cell
add post process cell
add post process cell
add elu-conv
add elu-conv
Model: "post_process"
_________________________________________________________________
Layer (type)                 Output Shape              Param #   
=================================================================
post_process (InputLayer)    [(None, 32, 32, 32)]      0         
_________________________________________________________________
postprocess_cell (Postproces (None, 64, 64, 16)        244260    
_________________________________________________________________
postprocess_cell_1 (Postproc (None, 64, 64, 16)        234724    
_________________________________________________________________
postprocess_cell_2 (Postproc (None, 64, 64, 16)        234724    
_________________________________________________________________
postprocess_cell_3 (Postproc (None, 128, 128, 8)       61460     
_________________________________________________________________
postprocess_cell_4 (Postproc (None, 128, 128, 8)       58996     
_________________________________________________________________
postprocess_cell_5 (Postproc (None, 128, 128, 8)       58996     
_________________________________________________________________
activation_24 (Activation)   (None, 128, 128, 8)       0         
_________________________________________________________________
spectral_normalization_186 ( (None, 128, 128, 100)     7400      
_________________________________________________________________
activation_25 (Activation)   (None, 128, 128, 100)     0         
_________________________________________________________________
spectral_normalization_187 ( (None, 128, 128, 100)     90200     
=================================================================
Total params: 990,760
Trainable params: 987,368
Non-trainable params: 3,392
_________________________________________________________________

Hyperparameters:
Max Epochs: 500, BatchSize: 19, Batches per Epoch: 6, Initial LR: 0.01
EN CH: 8, DEC CH: 8
Pre-process Blocks: 2, Pre-process Cells: 3
Post-process Blocks: 2, Post-process Cells: 3
…
