…
(None, 28, 28, 32)
(None, 14, 14, 64)
(None, 7, 7, 128)
Model: "encoder"
__________________________________________________________________________________________________
Layer (type)                    Output Shape         Param #     Connected to                     
==================================================================================================
image (InputLayer)              [(None, 28, 28, 1)]  0                                            
__________________________________________________________________________________________________
conv2d (Conv2D)                 (None, 28, 28, 32)   512         image[0][0]                      
__________________________________________________________________________________________________
instance_normalization (Instanc (None, 28, 28, 32)   64          conv2d[0][0]                     
__________________________________________________________________________________________________
leaky_re_lu (LeakyReLU)         (None, 28, 28, 32)   0           instance_normalization[0][0]     
__________________________________________________________________________________________________
zero_padding2d (ZeroPadding2D)  (None, 30, 30, 32)   0           leaky_re_lu[0][0]                
__________________________________________________________________________________________________
conv2d_1 (Conv2D)               (None, 14, 14, 64)   32768       zero_padding2d[0][0]             
__________________________________________________________________________________________________
instance_normalization_1 (Insta (None, 14, 14, 64)   128         conv2d_1[0][0]                   
__________________________________________________________________________________________________
leaky_re_lu_1 (LeakyReLU)       (None, 14, 14, 64)   0           instance_normalization_1[0][0]   
__________________________________________________________________________________________________
conv2d_2 (Conv2D)               (None, 14, 14, 64)   36864       leaky_re_lu_1[0][0]              
__________________________________________________________________________________________________
instance_normalization_2 (Insta (None, 14, 14, 64)   128         conv2d_2[0][0]                   
__________________________________________________________________________________________________
leaky_re_lu_2 (LeakyReLU)       (None, 14, 14, 64)   0           instance_normalization_2[0][0]   
__________________________________________________________________________________________________
conv2d_3 (Conv2D)               (None, 14, 14, 64)   36864       leaky_re_lu_2[0][0]              
__________________________________________________________________________________________________
instance_normalization_3 (Insta (None, 14, 14, 64)   128         conv2d_3[0][0]                   
__________________________________________________________________________________________________
add (Add)                       (None, 14, 14, 64)   0           leaky_re_lu_1[0][0]              
                                                                 instance_normalization_3[0][0]   
__________________________________________________________________________________________________
zero_padding2d_1 (ZeroPadding2D (None, 16, 16, 64)   0           add[0][0]                        
__________________________________________________________________________________________________
conv2d_4 (Conv2D)               (None, 7, 7, 128)    131072      zero_padding2d_1[0][0]           
__________________________________________________________________________________________________
instance_normalization_4 (Insta (None, 7, 7, 128)    256         conv2d_4[0][0]                   
__________________________________________________________________________________________________
leaky_re_lu_3 (LeakyReLU)       (None, 7, 7, 128)    0           instance_normalization_4[0][0]   
__________________________________________________________________________________________________
conv2d_5 (Conv2D)               (None, 7, 7, 128)    147456      leaky_re_lu_3[0][0]              
__________________________________________________________________________________________________
instance_normalization_5 (Insta (None, 7, 7, 128)    256         conv2d_5[0][0]                   
__________________________________________________________________________________________________
leaky_re_lu_4 (LeakyReLU)       (None, 7, 7, 128)    0           instance_normalization_5[0][0]   
__________________________________________________________________________________________________
conv2d_6 (Conv2D)               (None, 7, 7, 128)    147456      leaky_re_lu_4[0][0]              
__________________________________________________________________________________________________
instance_normalization_6 (Insta (None, 7, 7, 128)    256         conv2d_6[0][0]                   
__________________________________________________________________________________________________
add_1 (Add)                     (None, 7, 7, 128)    0           leaky_re_lu_3[0][0]              
                                                                 instance_normalization_6[0][0]   
__________________________________________________________________________________________________
flatten (Flatten)               (None, 6272)         0           add_1[0][0]                      
__________________________________________________________________________________________________
z_mean (Dense)                  (None, 32)           200736      flatten[0][0]                    
__________________________________________________________________________________________________
z_log_var (Dense)               (None, 32)           200736      flatten[0][0]                    
__________________________________________________________________________________________________
sampling (Sampling)             (None, 32)           0           z_mean[0][0]                     
                                                                 z_log_var[0][0]                  
==================================================================================================
Total params: 935,680
Trainable params: 0
Non-trainable params: 935,680
__________________________________________________________________________________________________
…
(None, 14, 14, 64)
(None, 28, 28, 32)
(None, 28, 28, 1)
Model: "decoder"
__________________________________________________________________________________________________
Layer (type)                    Output Shape         Param #     Connected to                     
==================================================================================================
latent_z (InputLayer)           [(None, 32)]         0                                            
__________________________________________________________________________________________________
dense (Dense)                   (None, 6272)         206976      latent_z[0][0]                   
__________________________________________________________________________________________________
reshape (Reshape)               (None, 7, 7, 128)    0           dense[0][0]                      
__________________________________________________________________________________________________
conv2d_7 (Conv2D)               (None, 7, 7, 128)    147456      reshape[0][0]                    
__________________________________________________________________________________________________
instance_normalization_7 (Insta (None, 7, 7, 128)    256         conv2d_7[0][0]                   
__________________________________________________________________________________________________
leaky_re_lu_5 (LeakyReLU)       (None, 7, 7, 128)    0           instance_normalization_7[0][0]   
__________________________________________________________________________________________________
conv2d_8 (Conv2D)               (None, 7, 7, 128)    147456      leaky_re_lu_5[0][0]              
__________________________________________________________________________________________________
instance_normalization_8 (Insta (None, 7, 7, 128)    256         conv2d_8[0][0]                   
__________________________________________________________________________________________________
add_2 (Add)                     (None, 7, 7, 128)    0           reshape[0][0]                    
                                                                 instance_normalization_8[0][0]   
__________________________________________________________________________________________________
conv2d_transpose (Conv2DTranspo (None, 14, 14, 64)   73792       add_2[0][0]                      
__________________________________________________________________________________________________
instance_normalization_9 (Insta (None, 14, 14, 64)   128         conv2d_transpose[0][0]           
__________________________________________________________________________________________________
leaky_re_lu_6 (LeakyReLU)       (None, 14, 14, 64)   0           instance_normalization_9[0][0]   
__________________________________________________________________________________________________
conv2d_9 (Conv2D)               (None, 14, 14, 64)   36864       leaky_re_lu_6[0][0]              
__________________________________________________________________________________________________
instance_normalization_10 (Inst (None, 14, 14, 64)   128         conv2d_9[0][0]                   
__________________________________________________________________________________________________
leaky_re_lu_7 (LeakyReLU)       (None, 14, 14, 64)   0           instance_normalization_10[0][0]  
__________________________________________________________________________________________________
conv2d_10 (Conv2D)              (None, 14, 14, 64)   36864       leaky_re_lu_7[0][0]              
__________________________________________________________________________________________________
instance_normalization_11 (Inst (None, 14, 14, 64)   128         conv2d_10[0][0]                  
__________________________________________________________________________________________________
add_3 (Add)                     (None, 14, 14, 64)   0           leaky_re_lu_6[0][0]              
                                                                 instance_normalization_11[0][0]  
__________________________________________________________________________________________________
conv2d_transpose_1 (Conv2DTrans (None, 28, 28, 32)   18464       add_3[0][0]                      
__________________________________________________________________________________________________
instance_normalization_12 (Inst (None, 28, 28, 32)   64          conv2d_transpose_1[0][0]         
__________________________________________________________________________________________________
leaky_re_lu_8 (LeakyReLU)       (None, 28, 28, 32)   0           instance_normalization_12[0][0]  
__________________________________________________________________________________________________
conv2d_11 (Conv2D)              (None, 28, 28, 1)    288         leaky_re_lu_8[0][0]              
__________________________________________________________________________________________________
instance_normalization_13 (Inst (None, 28, 28, 1)    2           conv2d_11[0][0]                  
__________________________________________________________________________________________________
rec_image (Activation)          (None, 28, 28, 1)    0           instance_normalization_13[0][0]  
==================================================================================================
Total params: 669,122
Trainable params: 0
Non-trainable params: 669,122
__________________________________________________________________________________________________
Number of original training examples: 60000 (60000, 28, 28, 1)
Number of original test examples: 10000 (10000, 28, 28, 1)
Model: "EBM"
_________________________________________________________________
Layer (type)                 Output Shape              Param #   
=================================================================
input_1 (InputLayer)         [(None, 32)]              0         
_________________________________________________________________
dense_1 (Dense)              (None, 512)               16896     
_________________________________________________________________
dense_2 (Dense)              (None, 256)               131328    
_________________________________________________________________
dense_3 (Dense)              (None, 1)                 257       
=================================================================
Total params: 148,481
Trainable params: 148,481
Non-trainable params: 0
_________________________________________________________________
MAX_EPOCHS: 500, LR: 0.0001, BS: 256, Z_DIM: 32, IMG_S: 28
Inf Rate Test: 0.001, Inf Iter Test: 100
Eta: 0.001, L2 Reg: 0.1

Epoch: 0
Training EBM
2021-05-11 23:39:17.523063: I tensorflow/stream_executor/platform/default/dso_loader.cc:44] Successfully opened dynamic library libcudnn.so.7
…
