…
2021-02-24 03:42:25.417144: I tensorflow/core/common_runtime/gpu/gpu_device.cc:1247] Created TensorFlow device (/job:localhost/replica:0/task:0/device:GPU:0 with 10371 MB memory) -> physical GPU (device: 0, name: GeForce GTX 1080 Ti, pci bus id: 0000:1a:00.0, compute capability: 6.1)

dataset size: 40504

dataset size: 40775
Model: "encoder"
__________________________________________________________________________________________________
Layer (type)                    Output Shape         Param #     Connected to                     
==================================================================================================
encoder_input (InputLayer)      [(None, 128, 128, 3) 0                                            
__________________________________________________________________________________________________
conv2d (Conv2D)                 (None, 64, 64, 64)   3136        encoder_input[0][0]              
__________________________________________________________________________________________________
leaky_re_lu (LeakyReLU)         (None, 64, 64, 64)   0           conv2d[0][0]                     
__________________________________________________________________________________________________
dropout (Dropout)               (None, 64, 64, 64)   0           leaky_re_lu[0][0]                
__________________________________________________________________________________________________
conv2d_1 (Conv2D)               (None, 32, 32, 128)  131200      dropout[0][0]                    
__________________________________________________________________________________________________
leaky_re_lu_1 (LeakyReLU)       (None, 32, 32, 128)  0           conv2d_1[0][0]                   
__________________________________________________________________________________________________
dropout_1 (Dropout)             (None, 32, 32, 128)  0           leaky_re_lu_1[0][0]              
__________________________________________________________________________________________________
conv2d_2 (Conv2D)               (None, 16, 16, 256)  524544      dropout_1[0][0]                  
__________________________________________________________________________________________________
leaky_re_lu_2 (LeakyReLU)       (None, 16, 16, 256)  0           conv2d_2[0][0]                   
__________________________________________________________________________________________________
dropout_2 (Dropout)             (None, 16, 16, 256)  0           leaky_re_lu_2[0][0]              
__________________________________________________________________________________________________
conv2d_3 (Conv2D)               (None, 8, 8, 512)    2097664     dropout_2[0][0]                  
__________________________________________________________________________________________________
leaky_re_lu_3 (LeakyReLU)       (None, 8, 8, 512)    0           conv2d_3[0][0]                   
__________________________________________________________________________________________________
dropout_3 (Dropout)             (None, 8, 8, 512)    0           leaky_re_lu_3[0][0]              
__________________________________________________________________________________________________
conv2d_4 (Conv2D)               (None, 4, 4, 1024)   8389632     dropout_3[0][0]                  
__________________________________________________________________________________________________
leaky_re_lu_4 (LeakyReLU)       (None, 4, 4, 1024)   0           conv2d_4[0][0]                   
__________________________________________________________________________________________________
dropout_4 (Dropout)             (None, 4, 4, 1024)   0           leaky_re_lu_4[0][0]              
__________________________________________________________________________________________________
flatten (Flatten)               (None, 16384)        0           dropout_4[0][0]                  
__________________________________________________________________________________________________
dense (Dense)                   (None, 768)          12583680    flatten[0][0]                    
__________________________________________________________________________________________________
z_mean (Dense)                  (None, 128)          98432       dense[0][0]                      
__________________________________________________________________________________________________
z_log_var (Dense)               (None, 128)          98432       dense[0][0]                      
__________________________________________________________________________________________________
sampling (Sampling)             (None, 128)          0           z_mean[0][0]                     
                                                                 z_log_var[0][0]                  
==================================================================================================
Total params: 23,926,720
Trainable params: 23,926,720
Non-trainable params: 0
__________________________________________________________________________________________________
Model: "decoder"
_________________________________________________________________
Layer (type)                 Output Shape              Param #   
=================================================================
decoder_input (InputLayer)   [(None, 128)]             0         
_________________________________________________________________
dense_1 (Dense)              (None, 768)               99072     
_________________________________________________________________
dense_2 (Dense)              (None, 16384)             12599296  
_________________________________________________________________
reshape (Reshape)            (None, 4, 4, 1024)        0         
_________________________________________________________________
conv2d_transpose (Conv2DTran (None, 8, 8, 512)         8389120   
_________________________________________________________________
leaky_re_lu_5 (LeakyReLU)    (None, 8, 8, 512)         0         
_________________________________________________________________
dropout_5 (Dropout)          (None, 8, 8, 512)         0         
_________________________________________________________________
conv2d_transpose_1 (Conv2DTr (None, 16, 16, 256)       2097408   
_________________________________________________________________
leaky_re_lu_6 (LeakyReLU)    (None, 16, 16, 256)       0         
_________________________________________________________________
dropout_6 (Dropout)          (None, 16, 16, 256)       0         
_________________________________________________________________
conv2d_transpose_2 (Conv2DTr (None, 32, 32, 128)       524416    
_________________________________________________________________
leaky_re_lu_7 (LeakyReLU)    (None, 32, 32, 128)       0         
_________________________________________________________________
dropout_7 (Dropout)          (None, 32, 32, 128)       0         
_________________________________________________________________
conv2d_transpose_3 (Conv2DTr (None, 64, 64, 64)        131136    
_________________________________________________________________
leaky_re_lu_8 (LeakyReLU)    (None, 64, 64, 64)        0         
_________________________________________________________________
dropout_8 (Dropout)          (None, 64, 64, 64)        0         
_________________________________________________________________
conv2d_transpose_4 (Conv2DTr (None, 128, 128, 3)       3075      
_________________________________________________________________
tf_op_layer_Sigmoid (TensorF [(None, 128, 128, 3)]     0         
=================================================================
Total params: 23,843,523
Trainable params: 23,843,523
Non-trainable params: 0
_________________________________________________________________

Model Hyperparameters:
MAX_EPOCHS: 1000, LR: 0.0002, Dropout: 0.3, BS: 128, Z_DIM: 128, IMG_S: 128, KLW: 0.1
…
